Transition Sequence using Loss Strategy/checkpoint.pth (torch, 21847 bytes, 6 tensors)

fc1.weight f4 [64, 8]
00000000: a13c 2c3f a4ed f83e 361c 2cbf 5801 a03f
00000010: de7c 853f c407 b83f 2f2b 2abf d44b d4bd
00000020: 32d4 27be a9c9 e63e bebc 263e 5ce3 473f
00000030: 66b6 5dbf f9f7 8bbf 4a69 cebf 3b36 1e3f
00000040: ab6d 18bf 0033 bc3f e02e 1bbf f5bc 40bf
00000050: 0808 0340 dc82 f63f 1cbe 41c0 466e 03c0
00000060: 684e 27c0 e15a dfbe 06ae b1bf 2bb3 1c3f
00000070: da16 853b 674d ecbe 6524 0bc0 1345 1940
00000080: 4f4e c7be 4c4d 1ebd 02f1 8bbe 4602 d9be
00000090: 8744 4dbf 80e2 18be 493b 7f3e 42f2 a73e
000000a0: b4dc f6bf f676 28bf eea4 13bf 61be bf3f
000000b0: 80e2 8c3f 5327 633f febd ba3d 9ae4 a63e
000000c0: 968e 02bd d6c3 0b3f 1e8a 133e 141c b93f
000000d0: 24e9 40bd b673 0ebe c97d 8e3b cf30 6ebe
000000e0: 33d3 2f3f a47a e63f cb36 073f f5c3 ccbe
000000f0: 8b2a 583f 1420 063c 6d80 113d 2788 10bf
00000100: c6cf bdbe 695a d53f 1b24 2ebf 3a01 543f
00000110: 20db 923f 9436 873f 8c94 1cbf 417f d8bc
00000120: 7645 603c 0d5d adbe b2f2 c7bf 7e7d 963f
00000130: 363e 42be 508f da3e f0b0 863f 5224 96bf
00000140: 8575 72bf b2e5 78be 2bbd 1f3f 7fd6 aabf
00000150: a502 8a3f 2507 083f 3349 f93d 787c ebbf
00000160: fa40 ebbf ed62 113f 8e18 babe 82d5 6b3e
00000170: aa32 153e 625d c93e f263 96bf f599 35be
00000180: c565 e93e 2e82 6a3f d108 563e 7d92 8dbe
00000190: ce2c 103f f4c9 4e3f 1636 c73b 3292 0cbf
000001a0: 2894 4abe 97e4 4fc0 0fff d73f 18a0 04c0
000001b0: 9b3d 24bf c831 163d f876 3bbf d106 493d
000001c0: a993 0ebf 6811 babf 9637 56be 61f5 2ac0
000001d0: 99dc 483f 3011 023f e4b7 203e 0b1b 12bf
000001e0: 108b 23bf 84eb 8e3e 9fe7 e9bd 9988 a2bf
000001f0: d0d3 7cbf e48c 9abd e34c fa3e c2fb 47bd
00000200: ad66 0bbc c766 773f 1574 7a3f 71da d2bd
00000210: 9010 06bf 5867 9ebf 241f eabe 09ce bd3e
00000220: d8b4 5340 9540 a93e f214 953f 9122 5abf
00000230: e6bb 493f 61c9 253e a1bb debd 4882 78bf
00000240: e9f4 09bf e458 f83e 63de a23f bd39 cbbe
00000250: 18ea 0dc0 0320 883d 550f 67bf 46c8 b7bf
00000260: ddb6 07bf 95e3 bf3f ef14 a23f 989b 423f
00000270: facb e9be b546 d2be 057b ed3e f3e3 7cbe
00000280: 172f 893f 358d b5bf d01c abbf d0fa 36bf
00000290: 95d0 dc3f 2fdb 5dbf fedb 49bf f4f2 853e
000002a0: 1a34 773e c673 5cbe 8f3d 60bf f9a4 0dc0
000002b0: 6aee bfbf 1005 8a3e 400b 533f 23a8 463f
000002c0: dcb2 0bbe 068b 6bbf 18cf a3bf 61d7 02c0
000002d0: d074 ba3f 2098 c63e 7ef0 3d3f 60c8 a5be
000002e0: 372e 96bf b364 92bf 49fe 01bf 7f38 3f3e
000002f0: 6797 7e3e 6b96 11bf c395 b0be eaf9 5cbf
00000300: 037f cd3f c7f1 043f e7b6 eebe 0a5a 693e
00000310: 93ef 2f3e 6e01 f23d 93fe 89be afa0 273e
00000320: f4ee c23e c0ce 8bbe 9149 c03f 7328 d9bf
00000330: cf28 1cbe 6a3d b13e 7556 ed3e de64 23c0
00000340: 528c 7c40 1a91 24be 7cbb dd3f d783 c5bd
00000350: d441 98bf 0657 82bc 9766 873d a483 8abd
00000360: 8cfb 4e3f b65f 0ebf 2ffc 09bf 0ccb 94be
00000370: 5c79 873f ab8e 373e 8e3d 9cbe 6620 e93e
00000380: b1d1 ebbe 8815 013f 3f95 ab3f 9030 653f
00000390: c027 43bf fcb8 173f b261 653f 6591 053f
000003a0: 2a24 aa3f bdb3 323f abdd 80bf c8b7 023f
000003b0: fdf7 abbf ba32 dabe 7caa 6fbe adb0 14c0
000003c0: 0b47 61bf 5d19 1ebe 0b89 c8bc baff 6ebf
000003d0: c586 4a3e 7707 8f3e d9f8 123f c5d4 d13e
000003e0: 1a5d 6d3d f1be 92bd 2272 813f 0596 ab3e
000003f0: 9924 da3f 0a73 62bd c4a7 883e cb2e 26bd
0.6728001 0.48618805 -0.67230546 1.250041 1.0428731 1.437737 -0.6647214 -0.103660256
-0.1638954 0.4507573 0.16282937 0.780813 -0.8660644 -1.093505 -1.6125882 0.618015
-0.5954234 1.4703064 -0.606184 -0.75288326 2.0473652 1.9258685 -3.0272284 -2.0536056
-2.6141605 -0.43624023 -1.3881233 0.6121089 0.004061562 -0.46152803 -2.1740963 2.394841
-0.38926932 -0.038647935 -0.27332312 -0.42384547 -0.8018269 -0.14930153 0.24924959 0.32802016
-1.9286103 -0.6580652 -0.5767354 1.4979974 1.1006622 0.8873188 0.091182694 0.32596284
-0.03187426 0.54595697 0.14408156 1.4461694 -0.04709734 -0.13911328 0.004348491 -0.23260807
0.6868164 1.8006177 0.5281798 -0.39993253 0.84439915 0.008186359 0.035522867 -0.5645775
-0.3707258 1.6668216 -0.6802384 0.8281437 1.1473122 1.0563531 -0.61164165 -0.026427867
0.013688436 -0.33860055 -1.562094 1.1757047 -0.18969044 0.42687464 1.0522747 -1.1729834
-0.9471057 -0.24306372 0.6239802 -1.3346709 1.0782057 0.531359 0.12172165 -1.839736
-1.8379204 0.56791574 -0.3634686 0.23030666 0.14570108 0.39329058 -1.1749251 -0.17734511
0.45585456 0.9160489 0.209018 -0.27650824 0.56318367 0.80776906 0.0060794456 -0.54910576
-0.1978308 -3.248327 1.6874713 -2.0722713 -0.641565 0.03666857 -0.73228407 0.049078766
-0.5569406 -1.4536562 -0.20919642 -2.6712267 0.78461605 0.50807476 0.15695149 -0.57072514
-0.6388407 0.2791406 -0.11421131 -1.2697936 -0.987607 -0.07546404 0.48886785 -0.04882408
-0.0085083665 0.966412 0.9783338 -0.10295571 -0.5236902 -1.2375288 -0.45726883 0.37071255
3.3079128 0.33057085 1.1647017 -0.85208994 0.78802335 0.16190101 -0.10875631 -0.97073793
-0.5388933 0.48505318 1.2724117 -0.39692488 -2.217413 0.06646731 -0.9025777 -1.4357994
-0.530134 1.4991328 1.2662638 0.7601867 -0.45663434 -0.4106957 0.4638292 -0.2469633
1.0717496 -1.4183718 -1.3368168 -0.7147646 1.7251154 -0.8666257 -0.78851306 0.2616192
0.24140969 -0.21528539 -0.8759393 -2.2131941 -1.4994633 0.26956987 0.8243904 0.77600306
-0.13642448 -0.9200901 -1.2797575 -2.0443957 1.4566898 0.38787937 0.74195087 -0.32379436
-1.1732854 -1.1436981 -0.50778633 0.18673895 0.24862443 -0.56870145 -0.3448926 -0.8631884
1.6054386 0.5193142 -0.46623918 0.22788253 0.17181234 0.11816679 -0.26952037 0.1636989
0.38072932 -0.27306175 1.5022451 -1.6965469 -0.15249942 0.34617168 0.46355024 -2.5530314
3.9460645 -0.16070977 1.7322841 -0.09644287 -1.1895089 -0.015910637 0.06611364 -0.0676339
0.8085258 -0.55614793 -0.53900427 -0.29061162 1.0583911 0.17925517 -0.30515712 0.4553253
-0.4605842 0.5042348 1.3404921 0.89527225 -0.7623253 0.5926664 0.89602196 0.5217498
1.3292286 0.6980551 -1.0067648 0.5106168 -1.3435055 -0.42616826 -0.23404878 -2.3232834
-0.8799903 -0.15439363 -0.02447941 -0.9335896 0.19777973 0.27935383 0.5741096 0.40982643
0.057950117 -0.071653254 1.0112956 0.33512893 1.7042419 -0.05528549 0.26690495 -0.04057197

fc1.bias f4 [64]
00000000: 2953 fcbf 3bd8 1f3e eeae cb3e 990b 8bbf
00000010: e8dd 333f cfdf 37bf 9a9f 643f 6cb6 9c3f
00000020: 54cf b9bf 7ed2 ea3e e01e 833f e699 97bf
00000030: 4777 983f 9f10 563e 31c7 c83e c386 223f
00000040: b11d 123f 8a16 0cbe eb0c 8abe 87e3 de3e
00000050: d596 7bbe 43f6 bd3f 4108 2cbf b4c1 cf3f
00000060: 6a07 543f 5964 ad3f 6d41 863e 4f6a 873f
00000070: c897 b9bf 3be6 b33f 1a7d 003f 92d0 743f
00000080: caf8 40bf a5b4 303f be09 2c3f 737a 1bbf
00000090: e709 aabf b856 293f d8eb 603b b8fa 623f
000000a0: 5bc8 333f 3d23 373f ebcb 2b3e 2db8 61be
000000b0: 3c75 663c 1a0c 8a3f 3b5d 31bf 9310 6d3d
000000c0: b5e9 483e 9ae4 de3f a5af b9bd 01fd b43f
000000d0: 77d3 e03e 1f04 3bbf 41e1 203e e9b3 4f3f
000000e0: c8cb 273f e61b 81bf 2151 adbf 7d06 0fc0
000000f0: 2d4c 8e3f 1630 e6bd 844b 923e 0738 43bf
-1.9712878 0.15609829 0.39781898 -1.0862914 0.7026048 -0.7182588 0.8930603 1.2243171
-1.4516397 0.45863718 1.0243797 -1.1843841 1.19114 0.20904778 0.3921447 0.6348688
0.57076555 -0.13680473 -0.2696298 0.43532965 -0.24569257 1.4840778 -0.67200094 1.6230989
0.8282381 1.3546249 0.2622179 1.0579318 -1.4499445 1.4054636 0.5019089 0.95630753
-0.7537962 0.6902564 0.67202365 -0.6073372 -1.3284272 0.6614795 0.0034320261 0.88663816
0.70227593 0.71538144 0.16777007 -0.22042914 0.014066037 1.0784943 -0.69282883 0.057877135
0.19620402 1.7413514 -0.09066705 1.4139711 0.43911335 -0.73053163 0.15710928 0.81133896
0.6554532 -1.0086639 -1.3540384 -2.234771 1.1116997 -0.112396404 0.2857324 -0.76257366

fc2.weight f4 [64, 64]
00000000: 0927 a03f 3354 8d3f b573 fa3c f503 833e
00000010: bd96 5a3e 501b 733f d685 aebf 6a53 06bf
00000020: 07bd e23f 5ce8 323f 6307 343f 9cff b73f
00000030: d02d 4fbf 17c3 da3f 0e83 813f c3ee 233f
00000040: e3c6 83bf b7cb 123f 8ee7 403f bd32 9fbf
00000050: b96a 923f 6d90 573f 0cf4 0c40 94f1 153f
00000060: 0c17 dfbf 85f4 76be f31f ebbd 3195 ae3d
00000070: b7df e23e 73b3 48bf 8151 f93e 6c83 6abf
00000080: 8504 423d 326e aebf c677 bb3e b8a3 373f
00000090: 1f77 e9bd 334d 4e3f 1bad 223f 8397 9abe
000000a0: 1a23 84be 5c68 463d e1cf 78be 6938 3a3f
000000b0: 7ae4 01bf 5e08 b7be 104b 0fbf 60bd aabe
000000c0: 7cf8 553e 9457 e6be 732f ae3e 474f d73e
000000d0: 0d98 97be 6dcb 6b3f 28ba 0c3f c57e 1abf
000000e0: 571a 9c3e 06aa 4abe b6c3 9a3f bf66 473f
000000f0: 34b6 18c0 d581 0e3f 2c73 f83d f215 2640
00000100: 779f 0e3e 38da 803f e7a0 6cc0 e906 1d3e
00000110: 333a 983e 7b1b d83f 8d4a 1dbf 4e21 b6be
00000120: 404e 2e40 4bf7 0dc0 b2f4 16bf b568 d03e
00000130: d7a4 9ebf f30e 793f 25c5 3f3f f984 2a3f
00000140: 8419 34bc d103 5e3f f7b4 623f 3732 f5be
00000150: 8c61 1cbf 4f3d 0a3f a186 dbbe 2037 e6bd
00000160: 8154 04c0 fa36 78bf 6a77 b73f 9d43 cdbe
00000170: f702 75bf ca00 b83e 7751 2e3f 3cbb febf
00000180: 0fd0 d43d 65b9 efbf 6379 483f 64e7 983f
00000190: 99c4 a03f dbae d5be c177 d33e 0e5b 0f3f
000001a0: 9441 b63f bbd6 833f 2653 e73e 9670 473e
000001b0: c609 883f a149 c43d a119 5bc0 4d61 823e
000001c0: eead 983f cf09 1b3f 2eb1 e0bf b897 96c0
000001d0: fe39 973f 6c23 2340 bd25 fb3e 0083 cabf
000001e0: 0318 443e aa88 df3e cfe3 1240 ac2b 9d3f
000001f0: 6999 3bbf f0fd e9bf 6d44 6ebf 9fd2 e53f
00000200: 7f7a 6dbe 4580 84be 32f4 92be 2b8e 803f
00000210: 1e4e c53c 0f73 1dc0 61af a43e 81a6 2b3e
00000220: b51c 82bf 609d 3fbd ac14 48be 55c8 5a3f
00000230: 3915 8cbe 08e8 d13e 42ab e33e fbeb a63e
00000240: 9078 203f 7b84 3cbd ec2b b63b 25c7 053f
00000250: 1fb2 b43d 538a 483e 55d7 8b3f e40e 24be
00000260: 9d01 0fbf d662 7dbe 7b65 9e3e 1a4a f3bb
00000270: a018 5b3e b36b 3f3f 32f6 94bd 65f9 143d
00000280: 5fb0 9fbe 385e 5e3f 9ada 2d3e 75a3 8f3f
00000290: 0879 513f e988 2dbf e08b b3be d1e0 113f
000002a0: 34d0 64bf 8ebf 2bbf 8cb6 713f 7afe b1bd
000002b0: 0477 d7be 1898 af3e c59e 6d3f 9f54 9abe
000002c0: 0407 553f 63b0 87bd 20f6 35bf 1300 683f
000002d0: 4a0c 0abe 562b 9a3e e7f7 913f 0af5 de3c
000002e0: 69cd 74bf 2a27 e1bf e42c 79bf 4bde 7fbe
000002f0: 32d7 bbbf b245 f23c 7119 3abf 3cd8 c73f
00000300: 4458 70be 18d4 ba3e d30b b8bf 5368 29be
00000310: c1ae 0f3f 3c4c 8a3f 1d55 b93e d25b 633e
00000320: 7eb3 0840 fe68 7fc0 fb56 7bbf a35c ec3d
00000330: 1417 10bf 0b8c d43d ec4c 80bf 20bf 5a3f
00000340: 4147 b93c 92d3 56c0 2d73 75bf 79c0 0c3f
00000350: 0cf1 9dbe a9e8 023f bb33 d3be 13f9 92be
00000360: d599 23c0 7b7e 59bf ec3e a6be 01c6 f6bf
00000370: d3cf 643e 43da 5bbf 4d5d 07bf dc7d a6bf
00000380: 1897 8ebf cdb0 13bf 3ecc 7f3f 4871 e03f
00000390: 63d9 debc b78f 7abf 7740 5e3f 5dad a6bf
000003a0: a7de 0ec0 f60d 08c0 0e2f db3e 8f86 3ac0
000003b0: 186e 41bc 5139 b3bf 39a8 3bbf 0a93 9f3f
000003c0: cd3b c23f 8835 99bf d61d 98bf af7e 08bf
000003d0: 19d1 1dbf 53f4 58bf b6ed 93bf 8e92 87bf
000003e0: feba 80be 746f d3bd 68e9 763f a6e3 8d3f
000003f0: fef6 28c0 60a7 333f 2120 453f caa2 2940
1.2511913 1.104132 0.030572752 0.25588956 0.21346565 0.9496355 -1.3634593 -0.5247103
1.7713937 0.698858 0.7032377 1.4374881 -0.8092928 1.7090787 1.011812 0.64036196
-1.029507 0.57342094 0.75353324 -1.2437359 1.1438819 0.8420475 2.2023954 0.58571744
-1.7428908 -0.24116714 -0.11480703 0.0852455 0.44311306 -0.7839882 0.48694995 -0.91606784
0.04736759 -1.3627379 0.36614817 0.7173419 -0.11399674 0.80586547 0.6354539 -0.3019372
-0.2580803 0.04843937 -0.2429805 0.72742325 -0.5073925 -0.3574857 -0.5597391 -0.33347607
0.2089557 -0.44988692 0.34020576 0.4205267 -0.29608193 0.9210728 0.5497155 -0.60349685
0.30488846 -0.19791421 1.2090976 0.77891153 -2.3861208 0.5566686 0.12131342 2.5950894
0.13928019 1.0066595 -3.6973207 0.15334667 0.29731902 1.6883386 -0.6144188 -0.35572284
2.723526 -2.2182186 -0.58967125 0.40704885 -1.2394055 0.97288436 0.74910194 0.6660915
-0.0109924115 0.86724573 0.8855738 -0.47889873 -0.61086345 0.539998 -0.4287615 -0.11240983
-2.0676577 -0.9695889 1.4333317 -0.40090647 -0.9570765 0.35938102 0.68093055 -1.9900889
0.103912465 -1.8728453 0.7831022 1.1945615 1.2559997 -0.41734967 0.41302302 0.55998313
1.4238763 1.0299906 0.45180625 0.19476542 1.0627983 0.09584356 -3.4234393 0.2546486
1.1928079 0.6056184 -1.7554071 -4.7060204 1.1814573 2.549037 0.4905223 -1.5821228
0.19149785 0.43658954 2.2951543 1.2278953 -0.7328096 -1.828062 -0.9307316 1.7954901
-0.2319126 -0.25879112 -0.2870193 1.0043386 0.0240851 -2.4601476 0.32165053 0.16762735
-1.0165011 -0.046780944 -0.19539136 0.8546193 -0.27359942 0.40997338 0.44466597 0.32601914
0.62683964 -0.04602478 0.005559435 0.52256995 0.088230364 0.19584017 1.0925089 -0.16021305
-0.55861837 -0.24744734 0.30936798 -0.007424605 0.21396112 0.7477371 -0.072735205 0.036370654
-0.31189248 0.86862516 0.16977921 1.1221758 0.81825304 -0.67787033 -0.35067654 0.5698367
-0.8938019 -0.67089164 0.9441917 -0.08691116 -0.4208299 0.34295726 0.9282039 -0.30142686
0.8321383 -0.0662544 -0.7107868 0.90625113 -0.1348125 0.30111188 1.1403779 0.027216453
-0.9562593 -1.7590077 -0.9733412 -0.24987142 -1.4675047 0.029574249 -0.7269507 1.5612864
-0.2347117 0.3648994 -1.4378608 -0.16543703 0.5612603 1.0804515 0.3619775 0.22202995
2.1359553 -3.9907832 -0.98179597 0.115411066 -0.56285214 0.103782736 -1.0023475 0.85447884
0.022616984 -3.3566632 -0.9587887 0.5498119 -0.30847967 0.5113626 -0.41250405 -0.28705654
-2.5562642 -0.8495862 -0.3246988 -1.9279176 0.22344904 -0.85879916 -0.5287674 -1.3007159
-1.113986 -0.5769165 0.99921024 1.7534571 -0.027203267 -0.9787554 0.86817116 -1.3021656
-2.2323396 -2.125852 0.42809337 -2.9144628 -0.011806034 -1.4001867 -0.7330356 1.2466748
1.51745 -1.1969461 -1.1884105 -0.53318304 -0.6164718 -0.8474781 -1.1556919 -1.05916
-0.25142664 -0.10323992 0.964499 1.1085098 -2.6400752 0.7017727 0.7700215 2.6505609

fc2.bias f4 [64]
00000000: 534b 63be 2da5 34bf ccd6 03bd cb98 a2be
00000010: 4867 16be c571 303f c197 04be 9ad0 a83e
00000020: aff0 bfbe 485b 8e3e f9f6 0c3e 0cd6 6abd
00000030: b68a 41be dc4d 61bd 5335 a23e 8925 743e
00000040: e5aa efbe 180d c6be 819a 22bf 2fb7 2abf
00000050: ed00 2c3f cfdc 63be ddaf afbe 7cc0 4b3e
00000060: 8ade cabe a444 d23e 8814 f0bd ba9d 3ebf
00000070: b169 633c cbee 503e 0056 8c3e a608 32bf
00000080: 7afb 1d3f e647 45bf d7e6 653f ec92 b0be
00000090: c677 c53e 721f 8dbd f415 b9bc da4c 26bf
000000a0: 5ad8 cb3e 869c 0b3f adbf a13f 2540 363f
000000b0: d55e 40bd 9d26 53bf c4cb c93f abc7 87be
000000c0: e6db 09bf 7a87 76be f621 2a3e ce77 043f
000000d0: 2966 f23e 8769 fbbe df10 5d3e 4ba9 ec3c
000000e0: 06a5 15be eefe 7c3d 595c b0bd f9c0 fcbd
000000f0: ba83 833e 52fd c23e 65d7 1d3c 6165 493f
-0.22196703 -0.7056454 -0.03218727 -0.31757197 -0.14687836 0.689236 -0.12948515 0.3297165
-0.37488315 0.27804017 0.13766088 -0.057333037 -0.1890057 -0.055005893 0.31681308 0.23842444
-0.4681007 -0.38681865 -0.63517004 -0.66685766 0.6718891 -0.222522 -0.3431386 0.19897646
-0.3962291 0.41067994 -0.11722666 -0.7445942 0.013880179 0.20403592 0.27409363 -0.69544446
0.6171185 -0.77062833 0.8980536 -0.34487092 0.38567942 -0.06890763 -0.022593476 -0.64961016
0.398135 0.5453571 1.263662 0.71191627 -0.04696544 -0.82480794 1.5765309 -0.26519522
-0.53851163 -0.24075118 0.16614518 0.5174531 0.47343567 -0.49103948 0.21588467 0.028889319
-0.14613733 0.061766557 -0.08611364 -0.12341494 0.25686437 0.38083893 0.009633874 0.78670317

fc3.weight f4 [4, 64]
00000000: 5caa 26c0 a52a 3fc0 f847 40bd 84d2 d3bf
00000010: f7f9 59be 0c6e 0ec0 ad9f 38bf e419 df3e
00000020: af5c 7840 807e 51bf 0214 2a3f 58b2 8f3f
00000030: 47df 4b40 a971 89bf 6dad cabe ac2a c83f
00000040: 537b 0e40 285a a4bd 8655 20c0 11ee cf3f
00000050: 6aa0 a140 ff06 8bbf ce88 f33f 6a24 dc3f
00000060: a702 d3bf ada1 86bf 8703 5cc0 3aa4 07c0
00000070: d3b0 f6be 9090 e93f d1b6 c7be 9d73 553f
00000080: ed4f 69bf 5846 f53f 4a44 aa3f 8639 e4bf
00000090: ce8b 073e 887c 1b3d 1122 8b3f a910 85c0
000000a0: 4905 98bf 38dc ca3f 11f8 e2bf 2206 c33f
000000b0: 7b75 1e3d 1c45 33c0 bddb 1f40 10d5 363e
000000c0: ddb3 48c0 fa71 1c40 1e87 adbf 6649 2a40
000000d0: 8be3 8a3f 2a09 20c0 444a a23f 67a0 1c40
000000e0: ef24 fd3f dab6 af3d ebc7 79bf 0aeb 3f3d
000000f0: 70a9 473e 5635 0140 78af 0e3d a6ad 1640
00000100: a9e8 33c0 028b 1fc0 be9d 6ebe f902 48be
00000110: c12e 453e 700c 19c0 6724 b4be 3b9d 63bf
00000120: 4ac2 7440 8623 58bf aac7 8d3f 61ca 943f
00000130: bed5 4340 14c9 9dbf 79e8 cdbe 170d b73f
00000140: 738e 1340 d5db 1abf 2db2 26c0 6dad d73f
00000150: 18bf 8140 d5e7 85bf e034 e63f e72e 0440
00000160: 00ac efbf 281d 85bf 63a4 5bc0 700f 09c0
00000170: 0a26 17bf 8dee ee3f 6146 b9be 5f60 223f
00000180: c044 ebbe 7fbf e23f d071 953f 9604 e7bf
00000190: b72d af3f 53f8 c2bd 400b a03f 12e4 9ec0
000001a0: bb7a 88bf 955c c63f b8f8 febf a5d4 3a3f
000001b0: 083b 4d3c 8390 2dc0 6206 3540 db30 723e
000001c0: 4ab9 5fc0 1b9b 1640 102d 42bf 939d 2140
000001d0: 5de2 423f 558a 64c0 2842 943f 08c7 8640
000001e0: bd49 0940 e65d a73a bf8a 98bf 6698 b83d
000001f0: a235 a9be ebfd 0e40 8b9b a73d 21e5 1c40
00000200: 56c7 e0bf 8d35 33c0 a051 6f3e 5a0f 1cc0
00000210: 3c41 1cbf 2947 02c0 3830 c7be 7f5a 0fc0
00000220: dcb9 7040 1378 1bbf 3bd1 8f3f ad53 7e3f
00000230: c628 7a40 848f 93bf 758e 4dbf aef2 d43f
00000240: 6139 1d40 66ff 963f 7c85 4bc0 b2a2 d23f
00000250: 2c4f 9640 73c8 7cbf c4be c93f 93ad 4d40
00000260: 1b0c 14c0 1a47 6cbf 3ea3 0ac0 1eec 37c0
00000270: 3c58 b4bd fbc4 1c40 0c57 1abf 9b32 e83f
00000280: d1cd 72bf 7400 0540 6e5e c33f 109b 2ec0
00000290: 8d78 37bf d8c6 7c3d 6b51 8d3f aa9e 51c0
000002a0: ddb7 a9bf 9277 b83f 821a 00c0 3e4f a33f
000002b0: 6b02 01bc d580 5ac0 5f18 0640 8c13 8d3e
000002c0: b365 42c0 9126 0b40 be1f 59bf 90c3 3140
000002d0: f5c7 23bf 93e7 0ec0 fc81 9e3f d596 6140
000002e0: c685 e93f 8e33 54bd 29a5 a8bf b729 c0bd
000002f0: e407 623f bcd9 1b40 5677 c6bd e3df 2940
00000300: 7b7a 4cc0 2cd1 4ac0 77cf 253e ae68 93bf
00000310: 0395 063f 6ee4 04c0 17b0 85bf f2ef a33f
00000320: 602c 8440 8037 4ebf 4f66 2e3e 22d9 a33f
00000330: 4bdf 5b40 df3b 88bf fae2 07bf 061b bc3f
00000340: 7398 1140 0d55 043e 6636 0fc0 b86a d63f
00000350: e82e 9140 fa25 c0bf 53ed ee3f 32a1 1140
00000360: 084d dabf a903 8dbf a737 febf b650 19c0
00000370: 499e 8fbe 1439 2640 f5ad e0be 892d 8b3f
00000380: cf20 8cbf 49d4 fe3f 207c c53f 4b81 10c0
00000390: 3bb8 b6bf bde8 6f3d fd13 8e3f fb16 ffbf
000003a0: 6433 8fbf 82bc bb3f a48f e2bf ad09 5340
000003b0: 0a54 423c a037 4ec0 1fe7 0940 3150 073e
000003c0: 3a65 39c0 30f2 1c40 580b ccbf e0f3 3340
000003d0: 65b4 0340 7c70 c4bf 213f f33f 091e 1940
000003e0: 0d91 0640 0ce3 cdbd d932 37bf c8ee f03d
000003f0: a99d 5b3f 2182 af3f d075 843c 16e6 1740
-2.604148 -2.9869778 -0.046943635 -1.6548619 -0.2128676 -2.2254667 -0.72118646 0.4357444
3.880657 -0.8183365 0.6643678 1.1226301 3.1855028 -1.0737811 -0.39585438 1.5638022
2.226277 -0.080250084 -2.50522 1.6244527 5.050832 -1.086151 1.9026124 1.7198613
-1.6485184 -1.051809 -3.4377153 -2.1193986 -0.4818178 1.8247242 -0.39006665 0.83379537
-0.9113758 1.9162092 1.330209 -1.7830055 0.13236925 0.03796056 1.0869771 -4.1582837
-1.1876613 1.5848455 -1.7731954 1.5236247 0.038686257 -2.801093 2.4977868 0.17854714
-3.135978 2.4444566 -1.355686 2.66073 1.0850691 -2.5005593 1.2678914 2.4472902
1.9776896 0.08579798 -0.97570676 0.04685501 0.19498229 2.0188804 0.03483531 2.3543487
-2.8110754 -2.4928594 -0.23302361 -0.19532384 0.19256116 -2.3913841 -0.35184023 -0.8891179
3.8243585 -0.84429204 1.1076558 1.1624261 3.0599208 -1.2326989 -0.40216425 1.430087
2.3055694 -0.6049169 -2.604625 1.68498 4.054577 -1.0461375 1.7984886 2.0653627
-1.8724365 -1.0399523 -3.4319084 -2.1415672 -0.5904242 1.866655 -0.36186507 0.634283
-0.4595089 1.771469 1.1675358 -1.8048275 1.3685826 -0.0952002 1.2503433 -4.9653406
-1.0662454 1.5497004 -1.9919653 0.7298072 0.012526281 -2.7119453 2.8285146 0.2365145
-3.4956841 2.353217 -0.7585001 2.5252426 0.7612665 -3.570943 1.1582689 4.211796
2.1451256 0.0012769073 -1.1917342 0.09013443 -0.3304873 2.234248 0.08183964 2.451485
-1.7560833 -2.8001435 0.23370981 -2.438437 -0.6103704 -2.0355933 -0.38903975 -2.2398984
3.761344 -0.60730094 1.1235727 0.9934643 3.9087386 -1.1528172 -0.802955 1.663656
2.4566271 1.1796691 -3.1800222 1.6455901 4.6971645 -0.9874336 1.5761342 3.2137191
-2.3132389 -0.9229599 -2.1662135 -2.8737864 -0.08805892 2.4495227 -0.60289073 1.8140444
-0.948453 2.0781527 1.5263193 -2.7282143 -0.7166832 0.06171307 1.1040472 -3.275309
-1.3259236 1.441149 -2.001618 1.2758558 -0.007874112 -3.4141133 2.0952375 0.27553976
-3.0374572 2.174229 -0.8481406 2.7775612 -0.63976985 -2.2328842 1.2383418 3.524831
1.824395 -0.05180698 -1.3175403 -0.093829565 0.8829329 2.4351645 -0.0969073 2.65429
-3.1949756 -3.1690168 0.16192423 -1.1516321 0.52571124 -2.0764422 -1.0444363 1.28076
4.130417 -0.80553436 0.17031215 1.2800639 3.4355037 -1.0643271 -0.53080714 1.4695747
2.2749298 0.1292307 -2.2376952 1.6751318 4.536976 -1.501159 1.8666176 2.2754636
-1.7054758 -1.1016742 -1.9860734 -2.3955512 -0.2805045 2.5972338 -0.4388272 1.0873271
-1.0947512 1.9908534 1.5428505 -2.2578914 -1.4274973 0.058571566 1.109985 -1.9928888
-1.1187558 1.4666903 -1.7700086 3.2974656 0.011860857 -3.222145 2.1547315 0.13214184
-2.8968034 2.452282 -1.5940962 2.81176 2.0578854 -1.5346828 1.900364 2.3924582
2.1026032 -0.100530714 -0.7156196 0.11764294 0.85787445 1.3711587 0.016169459 2.3734183

fc3.bias f4 [4]
00000000: 212e d73e 30b7 0cbf e728 3b3f 55d7 ae3e
0.4202738 -0.5496702 0.7310929 0.3414866
