Transition Sequence using Reward Strategy/checkpoint.pth (torch, 21847 bytes, 6 tensors)

fc1.weight f4 [64, 8]
00000000: 7baf 103c cea4 cbbe d618 7dbf 5ee4 bdbf
00000010: c6c0 d23f f616 ef3e 18c7 dfbe 1b48 0dbf
00000020: 38a1 923e 6b5d c23e c207 c03e e6d3 853e
00000030: 1d8b 2fbf da0b 7ebf 3632 80bf 66cd a73f
00000040: a7e2 28bf 4c66 4cbe 9de9 09bf 2204 92bd
00000050: 3731 04bf a36a 90bf a251 35bf 0ec0 c2bf
00000060: 3f43 bdbe c49a 48c0 3083 ffbe a96d 1040
00000070: 019b 12bf 5334 103f e048 94bf 1f8d 3e3f
00000080: 6d9f 95bf 9c12 4dc0 863f 77bf 857e d2bf
00000090: af06 843f 84ed 20bf 3ec2 06bf e688 c7be
000000a0: 3bae 44be 5d50 333e 72d5 193f 3431 0440
000000b0: 9926 1ebf b521 0e3f 2c2e 44bf a47d a0be
000000c0: 0de2 8bbe ac2b af3f 7bc7 7d3f 0767 743f
000000d0: 9fa9 6dbf 8a6a ee3e 950a 4ebe 0c76 d43e
000000e0: 5318 99bc 8a4d 643f 0928 f23d e39e 8ebe
000000f0: 3498 d43b 4b70 aabe ce7c 30bf 3c79 80be
00000100: dfdd 8c3d 10d8 e3be ebeb 15bf 7a0c a3bf
00000110: 241c 723f 9e61 823f 3d9a a23e 6a8e 923f
00000120: ab9b febf 6d62 443d 5767 443c eedc 0fbe
00000130: 0fb1 89bf 31c6 f13e 9c8f acbd 20c9 e9be
00000140: bece 0ec0 6fd8 283e 08f9 573f 8367 753e
00000150: 6696 943f 0050 9f3f 9a13 13bf fe6b a7bf
00000160: 2a48 67c0 fe10 02bf ec88 d2bf 5e64 78be
00000170: 576c 043f 7e56 363d eaf3 173e 60d1 153d
00000180: 84c5 73bf caab 0a40 7a24 5abe 69cf 753f
00000190: e9f8 a63f 7fd1 d3bc b1cc 1b3f 0848 393e
000001a0: ce77 c0bf c5ae cb3e d30d 19bf 5076 93bf
000001b0: 809b f6be a018 b03e 078f e83d c266 cbbe
000001c0: c891 283e 6fc5 9dbd 5f43 03bf ba50 afbf
000001d0: d555 283f fa03 f73e 615d e13e ddd3 193f
000001e0: a0dc 71c0 d4a4 e3bd 5f75 f4bf dcbc 60be
000001f0: 5476 f83e 9edc 10be 36a3 0a3d f941 8a3c
00000200: 5b35 ba3d fff4 2f3e 5067 803f 5d9e f83e
00000210: 9b63 fe3f 9461 3ebf 4157 debf 56e3 743f
00000220: ae56 a5be 82ad 8bbf d3b0 88bf 252f 41bd
00000230: 608c 25bf 8ee5 863d aa7b 4ebf ab47 8a3f
00000240: 67cb 81bf 2779 27bf 7e88 2ac0 48bf 893e
00000250: 3b17 84bf 3d16 f9be 368e 44bc 1c94 c0bd
00000260: a440 843e f9d7 6d3f d6ac 543f fb09 27be
00000270: 1f40 afbe 278b 73be b5ca cdbe fd2d a8bd
00000280: a9f6 9dbf abd8 8bc0 33b6 66bf f04d bebf
00000290: 1aa4 a73f f234 913f 16e1 073f cbfd 86bf
000002a0: 42f8 8abd 0e25 a6be ce27 783e db9a 00c0
000002b0: 2168 4e3e d472 8bbe 078d 51bf a10f 053f
000002c0: 7b6e 84bf 3bce 74bf f0a1 da3f 1461 2cbf
000002d0: 5a3e 5dbf d084 86be de02 90bf bcf3 95bd
000002e0: 2188 bcbf 3d78 37c0 890d d33e 411d 47c0
000002f0: 2b45 21c0 4756 a7be 7038 fe3e 60c9 c13e
00000300: c48e b5bf 0bed 19bf 9999 52be 5bee 4e3e
00000310: 6b6a 823f 4ff9 a13e 0d4b d5be 1bee 993f
00000320: d992 833f 41c2 8bbe e432 56bd a14a dabe
00000330: 07b6 ef3d 13f9 b0bf 2620 93bf 7ea6 173f
00000340: de87 3bbf 1af2 0f3f 86b6 ba3f 1b83 2d40
00000350: 4e45 0ebf 64a8 843e 83a1 323e ed49 cabe
00000360: c5ca cd3f 2d56 fb3e f852 ab3e aecb 04be
00000370: 51ee 1e3f c83b 93bf 169e eebf 628d 2abe
00000380: 9d41 c7bf 8247 fc3e 22ff 813e a253 8abf
00000390: 57d1 5bbe c53a 8b3e b770 5b3d fd96 b0bb
000003a0: 4a38 d0be 1615 b2be be9e 24bf d6dc 803f
000003b0: 0d8f d73d 079f 353d e86e f9be 3f90 823f
000003c0: 3fac d03e 8f9d 993f e90a 05bd dafd 3fbf
000003d0: 8198 61bf 9e17 673e 0892 af3f 7817 79bc
000003e0: 277c e83e cbf3 5ebf d52f 68be 0e1a e73e
000003f0: 6818 95bf 3a51 2d3e 39fe e63e a304 f4be
0.0088309 -0.39774173 -0.9886602 -1.4835317 1.646508 0.46697205 -0.43706584 -0.5518815
0.28638625 0.37961897 0.3750592 0.26138228 -0.68571645 -0.99236834 -1.0015323 1.3109558
-0.65970844 -0.19960898 -0.5387209 -0.071296945 -0.51637596 -1.1282543 -0.70827687 -1.521486
-0.36965367 -3.1344461 -0.49904776 2.2566931 -0.5726777 0.5632984 -1.158474 0.74434084
-1.1689278 -3.2042608 -0.96581304 -1.6444861 1.031454 -0.6286242 -0.5264014 -0.38971633
-0.19207089 0.17511125 0.60091317 2.0655031 -0.61777645 0.5552018 -0.7663295 -0.31345856
-0.273209 1.3685203 0.9913251 0.9546971 -0.92836946 0.46565658 -0.20121224 0.41496313
-0.018688357 0.89180815 0.11824042 -0.27855596 0.0064878706 -0.33288798 -0.68940437 -0.25092494
0.06878256 -0.4450078 -0.5856311 -1.2738183 0.9457419 1.018604 0.317583 1.1449711
-1.9891256 0.04794543 0.011987529 -0.14049122 -1.0757159 0.4722152 -0.08425829 -0.4566126
-2.2313685 0.16488813 0.84364367 0.23965268 1.1608398 1.2446289 -0.57451785 -1.3079832
-3.6137795 -0.5080718 -1.6448035 -0.24257037 0.51727813 0.04451608 0.1483914 0.03657663
-0.9522326 2.1667352 -0.21302977 0.9601961 1.3044711 -0.025856731 0.6085921 0.18093884
-1.5036561 0.39781776 -0.5978672 -1.1520481 -0.48165512 0.34393787 0.11355405 -0.39726835
0.16461861 -0.07703673 -0.51274675 -1.3696511 0.6575597 0.4824522 0.44016555 0.600889
-3.779091 -0.11115423 -1.9098319 -0.21947044 0.48527777 -0.14146659 0.033847056 0.016877161
0.09092208 0.17183302 1.0031528 0.48558322 1.9874147 -0.7436764 -1.7370378 0.9565939
-0.32292694 -1.0912325 -1.0678962 -0.0471641 -0.6466732 0.06586753 -0.80657446 1.0803121
-1.0140198 -0.6541924 -2.6645808 0.2690375 -1.0319589 -0.4864978 -0.011996796 -0.094032496
0.25830567 0.92907673 0.83076227 -0.16312401 -0.34228608 -0.23783551 -0.40193716 -0.082118966
-1.23409 -4.3701987 -0.90121764 -1.4867535 1.3096955 1.1344283 0.5307783 -1.0546201
-0.06785633 -0.32450145 0.24233934 -2.0094516 0.2015691 -0.27236044 -0.81855816 0.5197697
-1.0346216 -0.9562718 1.7080669 -0.6733563 -0.86423266 -0.26273203 -1.1250875 -0.07321879
-1.4729043 -2.8667138 0.41221264 -3.1111605 -2.5198467 -0.32683012 0.49652433 0.3784895
-1.4184194 -0.60127324 -0.20566405 0.20208113 1.0188726 0.3163552 -0.41658822 1.2025789
1.0279189 -0.2729664 -0.052294627 -0.42635062 0.11704641 -1.3826011 -1.1494186 0.5923842
-0.7325419 0.5622879 1.4586952 2.711127 -0.555745 0.25909722 0.17444424 -0.39509526
1.6077505 0.49089184 0.33461738 -0.12968323 0.6208239 -1.1502619 -1.8641994 -0.16655496
-1.5566899 0.49273306 0.25389963 -1.0806773 -0.21466576 0.27193275 0.05357429 -0.005389093
-0.40667945 -0.34781712 -0.6430472 1.0067394 0.10525332 0.044341113 -0.48717427 1.020027
0.40756413 1.2001208 -0.032481108 -0.7499672 -0.8812333 0.22567603 1.371644 -0.015203349
0.4540722 -0.8709075 -0.22674496 0.45137066 -1.1648073 0.16925517 0.45115831 -0.47659788

fc1.bias f4 [64]
00000000: 0372 8fbf 0798 70bd 47f5 b7bf 2f8b 1fbf
00000010: 8f03 8cbd ca98 80bf 3ead 8c3e b2d1 923f
00000020: d688 39bf 328b 9f3d 3209 c3be b1d6 32bc
00000030: d45e 963e a149 48bf b13e 583f 5f34 f83d
00000040: 29bf 7ebc bfb6 2abf f562 eabe e7be 713f
00000050: 5e41 2ebf 7715 c03e 01e3 283e ffd9 a13f
00000060: c64b 803f 98cb 0b3f 061c 7cbf a917 f93d
00000070: c8af 6c3f 74b6 fe3e 18db 85bf 7110 dc3f
00000080: 96e8 16bf ace9 143f ae6f 383f 04cb 123f
00000090: 639b 0cbf 089f 1a3f 0128 a5bf bf68 f53e
000000a0: 8614 c7bf cd46 583f 62c6 853f 30b1 2dbf
000000b0: 815c 0cbe ed70 8e3f c553 08bf 3a55 94bf
000000c0: e078 d03c 4e1f a43d d138 9cbe 3f38 c33e
000000d0: e2b5 243e 6a21 78be d405 d2bd 2b12 43bf
000000e0: cc6a 743f cc92 69be a822 bbbe 570d 71bf
000000f0: ad4f d43e 484a 0e3f 704a 203f 6baa a3bf
-1.1206669 -0.058738735 -1.4371728 -0.6232175 -0.06836616 -1.0046628 0.27475923 1.1470244
-0.7247442 0.07790221 -0.38092953 -0.010915444 0.29369223 -0.7823735 0.8447066 0.12119364
-0.015548506 -0.666851 -0.45778623 0.9443192 -0.6806849 0.37516376 0.16492845 1.2644652
1.0023124 0.54607534 -0.9848026 0.12162716 0.9245572 0.49748576 -1.0457487 1.7192518
-0.5894865 0.58169055 0.7204541 0.5734103 -0.549246 0.6039891 -1.2902833 0.47931477
-1.5553138 0.84483033 1.0451167 -0.6784849 -0.13707162 1.1128212 -0.5325282 -1.1588509
0.025448263 0.080137834 -0.30512097 0.3812885 0.16085008 -0.24231496 -0.10255018 -0.761996
0.9547546 -0.22809905 -0.36549878 -0.9416098 0.41467038 0.55582094 0.6261358 -1.2786382

fc2.weight f4 [64, 64]
00000000: 2246 703f c631 4a3f cd04 da3e 85d7 29bf
00000010: 2004 023f ecaa c2be b9c0 2d3e 3619 0fbc
00000020: 41fe 3a3e c1f5 423e 1217 0a3e b299 e5be
00000030: 961e 15c0 2e89 693e 5b50 d43e ec4a ea3e
00000040: 4c56 efbe 8b84 433f ceff 783f d1fa 573e
00000050: a541 30c0 3ab7 343f 0c05 ab3d a9c2 ef3e
00000060: 5a3c 58bf 6d29 3d3f 8b91 04c0 a0c1 4a3f
00000070: 60ad f93e 1edd 0fc0 3a0b adbf a79c dabe
00000080: e9a2 aebc d500 443f e336 99bf 1702 1dbf
00000090: 7df1 df3e 1b28 f03b cc5a 3a3f 7d1e 0d3e
000000a0: 8c88 033e 3230 24bf 277b d0be ef87 c5be
000000b0: fb4f c93f bad6 07bf 6b4b d93b 8152 df3e
000000c0: ece0 4c3f e46b 46bf e14b 8ebf ecda 15be
000000d0: c7a3 103f 3634 033e 1e5a 303e 0707 2fc0
000000e0: 6d04 5fbf 3801 ee3e e1b8 25bc 9a65 5440
000000f0: 3d24 9a3f 41a9 13bf 68cc 123e daa5 1440
00000100: e053 4dc0 2857 aa3e dde6 30bf 940b 2340
00000110: 2d6a 983e 30b5 323f e2ea 453f 1ada e43e
00000120: 5c2e 99bf e452 123f 7767 54c0 145f cabf
00000130: 664d 013c d76e 013d 2726 2cbe 804f 89bf
00000140: 1024 19c0 82f0 57bf 9fb3 2fbf f357 1c3f
00000150: 5cde d7be 52ae efbe 2c52 da3e 71c1 f53d
00000160: 977d abbf 70d2 e03f 4880 d0be ddb5 90bf
00000170: f62a 253f ae30 88c0 61e6 933f 5bb9 1d3f
00000180: 39cd a1bf 378b c6be 16fe 08bf 95a2 e5be
00000190: d27a 063f fb20 aabe 38a8 c63f a8b8 b13f
000001a0: 9822 22c0 6c59 b23d 84f4 323f 0009 8dbe
000001b0: 5d6e 3cc0 fd5e 443f e829 9c3e 4ac9 333f
000001c0: ec04 e83e 5e31 3bc0 3d3f 6cbe ff56 203f
000001d0: dbeb a43e d9c1 62be 8662 2ebf ded2 6fbf
000001e0: c54f c5bf 22a6 453f 5ee4 18bc a06b 903f
000001f0: 0ad4 bebe 6afb 0fc0 306a 99be 9362 993f
00000200: df37 0fbe 0e1d c7bd 5e56 3e3e 7dff 8d3f
00000210: 5cab 573f c203 2abf 2bae 3fbf 1110 5dbf
00000220: 6c31 733f aadf bebe b64d d03f 0009 82bd
00000230: 025a 35be 121c b6bd 0f3b bb3e 591a 6a3d
00000240: 58be f4bd 52de 463f 58d2 2b40 b21e 3abf
00000250: 0bd9 c9be b064 12bf 9774 ddbf 8aeb 843e
00000260: 11f3 8fbe 0e68 0cbf 78b7 063f 03af 8d3d
00000270: d3da 4abf bc33 56bf 948e a93f fe71 1bc0
00000280: a959 4dbf 6767 893c 289f 81bf e731 b3be
00000290: 8c60 85be 543d 35bf 66ef ee3f b225 943f
000002a0: e818 e23f b1d1 8bbf d5a7 ffbf 98aa 513f
000002b0: 9214 a7bf 6748 42bf b744 dd3e 61d1 893f
000002c0: ca64 9f3e 9307 0bc0 ba8e 7dbf da8c 76bf
000002d0: b89f 1d3e 20df 8ebf 37c8 383e e035 ef3e
000002e0: ace0 9ebf 866d 9cbf c167 7d3d eb66 a43f
000002f0: a3a1 1c3f c6c2 823f 7a73 3dbf b2c4 d2be
00000300: 6331 1040 fcb2 7abf 3b80 a23f b582 82be
00000310: aa3f b33f c417 efbf e555 dabf ca0a c9be
00000320: 0f8d da3e 5541 1a3f d7bc 0240 196c 3c3f
00000330: 5214 ec3d 395e 193f 6747 5a3f ac80 e93f
00000340: e3e4 90bf 0e56 a73f 32a5 1f3e fb67 09bf
00000350: 5087 70bf ca28 8d3e 322f 1bc0 309f c13e
00000360: 7442 b3bd 4826 ee3e 0a7e 94be 35e4 a33f
00000370: 5f5a 223f c96c 8fbf c895 b6bf 0176 0dc0
00000380: 3f83 cbbe e22e 5b3f e986 4d3f 18d8 813f
00000390: 1ddf 883e 7c29 01c0 9ee2 ec3f ed1c 2e40
000003a0: d866 4940 23e7 933d b281 87c0 d477 debf
000003b0: 317e e03e 67b9 8cbe baf9 9fbf 3f9b 5a3f
000003c0: d6c0 253f 603d 39bf 8d4a 3fc0 d10d 9abf
000003d0: d907 4dbe 50d1 c7bf 65a9 b9bc 2f03 c6bf
000003e0: 2d7a 01bf afa1 cfbe 4091 e4bb 7c84 9d3e
000003f0: 4818 e63d 64ef 25bf 97c6 bb3e f0ff b53f
0.93857014 0.789822 0.42581788 -0.6634448 0.50787544 -0.38021028 0.16968049 -0.008734038
0.18261053 0.1903906 0.13485363 -0.44843823 -2.3299918 0.22806236 0.41467556 0.45760286
-0.46745527 0.7637412 0.97265327 0.21091773 -2.7540066 0.7059208 0.08350572 0.468282
-0.8446709 0.73891336 -2.0713832 0.792017 0.48765087 -2.247871 -1.3519051 -0.4269764
-0.021317916 0.7656377 -1.1969875 -0.61331314 0.43738928 0.0073289997 0.72794795 0.13781162
0.12845057 -0.6413604 -0.40718958 -0.38580272 1.5727533 -0.5306202 0.006631305 0.43617633
0.80030704 -0.7750838 -1.1116906 -0.14634293 0.56499904 0.12812886 0.17221877 -2.734804
-0.8711613 0.46485305 -0.010114879 3.3187013 1.2042309 -0.57680136 0.14335787 2.3226228
-3.2082443 0.3326962 -0.6910227 2.5475817 0.29768506 0.6980772 0.7731153 0.44697648
-1.1967273 0.5715773 -3.318815 -1.5810266 0.007891988 0.031599846 -0.16811429 -1.0727386
-2.392826 -0.8435136 -0.68633455 0.610717 -0.42161834 -0.46812683 0.42640817 0.11999787
-1.3397702 1.756422 -0.4072287 -1.13055 0.6451868 -4.2559423 1.1554681 0.61610955
-1.2640754 -0.38778087 -0.53512704 -0.44850603 0.5253116 -0.33228287 1.5520086 1.3884478
-2.5333614 0.08708462 0.6990435 -0.2754593 -2.944236 0.7670744 0.30500722 0.7022902
0.45316255 -2.9248881 -0.23070998 0.62632746 0.32211193 -0.2214426 -0.68119085 -0.9368113
-1.5414969 0.77206624 -0.009331791 1.1282845 -0.37271148 -2.24972 -0.29963827 1.1983207
-0.13986157 -0.097223386 0.18587634 1.1093594 0.8424585 -0.66411984 -0.74875134 -0.8635264
0.94997287 -0.37280017 1.6273715 -0.06349373 -0.17710117 -0.08892073 0.36568496 0.057154033
-0.11950368 0.77682984 2.6847134 -0.7270309 -0.39423403 -0.57184887 -1.7301205 0.25960952
-0.28115132 -0.54846275 0.526237 0.069181465 -0.7924015 -0.8367269 1.3246636 -2.4288325
-0.80214936 0.016772939 -1.0126696 -0.3499901 -0.26050222 -0.70796704 1.8666809 1.1574004
1.7663851 -1.0923368 -1.9973093 0.8190093 -1.3053153 -0.7589173 0.43216488 1.0767022
0.31131583 -2.1723373 -0.9904591 -0.9630867 0.15392959 -1.1161842 0.18045126 0.4672079
-1.2412314 -1.2220924 0.061866526 1.2843908 0.6118414 1.021569 -0.7400433 -0.41165692
2.2530143 -0.9792936 1.2695383 -0.25490347 1.4003804 -1.8679128 -1.7057463 -0.39266044
0.42685744 0.6025594 2.0427759 0.73602444 0.11527313 0.599094 0.852652 1.8242393
-1.1319851 1.3073137 0.15590361 -0.53674287 -0.9395647 0.27570182 -2.4247556 0.37816763
-0.08752909 0.4651358 -0.2900241 1.2804018 0.63419145 -1.1205074 -1.426446 -2.2103274
-0.3974857 0.8561841 0.8028398 1.0144072 0.26732722 -2.018157 1.8506658 2.7205155
3.146902 0.0722182 -4.234582 -1.7380319 0.43846276 -0.274852 -1.2498085 0.85393137
0.6474737 -0.72359276 -2.9889252 -1.2035466 -0.20022525 -1.5610752 -0.022663781 -1.5469722
-0.5057705 -0.40553042 -0.006975323 0.3076514 0.112351 -0.64818406 0.3667495 1.4218731

fc2.bias f4 [64]
00000000: 1f54 a1be 98e2 c03e 849b 6ebf b5da 08bf
00000010: 388a 26bf d40a 06bf 4bc1 b13e ba8e b1be
00000020: 30a2 713f 21bd 69be f86a 3dbf 5fa4 2ebf
00000030: 7ec6 f93e 42e8 253f 2818 aa3f d1a8 343f
00000040: 7569 b23e b762 05be 1e26 8abf 4f2f 5dbe
00000050: 5f8c 333f aa09 3ebe 8dc4 bcbe ed69 923d
00000060: 8384 60be 2385 cabe 2bf1 90bd d2e0 55bf
00000070: 3eb7 d2be a03f 02be cabd 41bf d9e7 b63c
00000080: 5fe1 0a3f 6dc9 13be fb96 6b3f b316 b23e
00000090: baf5 0abf 3eb5 3e3e 4b9f acbe 9a52 1bbe
000000a0: 77ce 2abf b799 b33e 6aa7 70bc 2a35 eabe
000000b0: 775a b53e a261 cdbe 5219 ac3c 01b2 b83c
000000c0: 38b9 2abf 7d3b 3ebf 982f 2cbf 6288 913f
000000d0: 302b aebe 57ee a8be b95c 05bf 65cb b2bd
000000e0: 0ebc dfbe fa01 68be 4499 09bf fd84 a83d
000000f0: 854e 0bbf 5ecc 42bd 9353 ea3c debd 3cbf
-0.31509492 0.37672877 -0.9320605 -0.5345872 -0.65054655 -0.5236027 0.34717783 -0.34679204
0.94388103 -0.22826053 -0.73991346 -0.6821956 0.4878425 0.6480752 1.3288622 0.70570093
0.34846082 -0.13025938 -1.0792882 -0.21600078 0.70136064 -0.18558374 -0.36868706 0.0714911
-0.21925549 -0.395547 -0.07077249 -0.83546174 -0.41155428 -0.12719584 -0.7568022 0.02232735
0.5425014 -0.14432307 0.9202725 0.34782943 -0.542812 0.18623826 -0.3371528 -0.15168229
-0.6672129 0.35078213 -0.014688352 -0.45743686 0.35420582 -0.4011355 0.021008167 0.022545816
-0.6668887 -0.7430952 -0.6726012 1.1369746 -0.34017324 -0.3299434 -0.5209461 -0.08730201
-0.43698162 -0.22657004 -0.5374949 0.082284905 -0.54416686 -0.04755818 0.028604304 -0.73727214

fc3.weight f4 [4, 64]
00000000: 3f94 d2bf 5e34 cdbf 661a 95bf ec17 0bc0
00000010: fd23 92be e842 cabf 5d0e 2140 efd1 96bf
00000020: 16bc dd3f 0457 b6bf 3b2d 40bf a404 4f3f
00000030: ea2e 6c3f 90a2 c5bf a8a9 01c0 e106 ee3f
00000040: ef85 89bf faed 70be ada4 11c0 a2e9 e13f
00000050: aebc e13f 5dd3 94bc f16f 803f f429 5c40
00000060: b2b7 85bf 41d4 d5be 8de1 8b3c 2205 4bbf
00000070: 462d 2cbf 1bed 933d b173 27bf 66cd 973e
00000080: f3bb 853f d99d 2dbe eb84 ee3f 8f1b 8cbf
00000090: f29c a9bd d0a8 323f 037c 613d eebe 94bf
000000a0: 153d eebf f0ba 3d40 97ed 2dbf 6ddc 03bf
000000b0: aef1 2e40 9bed 8e3e 4728 5040 3eae 49bf
000000c0: 1652 3ebf b177 f3bf d4cc 7fbf 13a8 1140
000000d0: e89a 8ebf af42 e53f c468 d6be 1be6 3b40
000000e0: d224 4fbf f2ce e5be b89f 93bf dd12 dd3f
000000f0: d1ad 0dbf 300c c13d 78af 0e3d 322d ee3f
00000100: f7aa b6bf abd2 dbbf da33 0dbf 766f 16c0
00000110: 5e36 153f 665f c2bf 615b 1d40 66a1 4c3d
00000120: 6547 da3f 3b8f 56bf c414 32bf bef5 a23e
00000130: 6f99 783f 70c5 c7bf f52c 01c0 565c 0f40
00000140: d484 48bf 1d9e 29bf b371 13c0 fa60 ea3f
00000150: 6a51 e13f 9bc8 1d3f 37e9 863f 425c 8540
00000160: 5a93 50bf ff79 693f 5331 e03e 2264 89bf
00000170: c669 c8be 542b 3abd db1b 8bbf d0d5 b03f
00000180: db00 933f cc83 963d a7e0 e43f 5b3d 4cbf
00000190: dbd0 ca3f 00a9 66bc d4ec d73b 3e83 96bf
000001a0: 8769 cbbf 74da 4440 fd63 1dbf d698 66be
000001b0: 3cc2 1740 0360 1e3f 2af3 3140 f8da 83bf
000001c0: 09ec 6ebf 3439 07c0 9b9c 00c0 4719 f43f
000001d0: 26da 4bbf ec7a 833f de68 4cbf 0915 6f40
000001e0: 2a80 0fbf b325 2cbf 6f6a 13bf 4734 e13f
000001f0: 079a c0be 4bb3 b13d 1022 b33d e50b e53f
00000200: 3700 94bf 3137 d5bf 1a0d 99bf 81b5 fabf
00000210: ab35 58bf b303 aebf 4574 3140 5267 86bf
00000220: e3a1 b53f 465f acbf cf58 f6be 7d31 4fbf
00000230: bf79 ab3f 743f e0bf 49df ecbf 5be9 e13f
00000240: 33b2 00c0 3ceb ff3d 06a6 09c0 08b1 b53f
00000250: 1368 0f40 afa8 903f 5ed3 be3f 61cb 6740
00000260: 77e2 9abf ae95 61be d0e7 163f d7b0 4ec0
00000270: ece8 693c 1854 18bd 3ca4 e0bf e280 bebf
00000280: e4fe ae3f 4da7 06bb 3838 dd3f 6f35 8ebf
00000290: 5d1f 8dbf 81c8 633f 5a25 8fbf a5cf 4ebf
000002a0: b187 f3bf b658 7a40 ea5b 0d3f e4fb 08c0
000002b0: cdfa 1d40 b117 3cbf b441 f43f 4323 9fbe
000002c0: 5ce3 81bf 59e4 14c0 4cf5 c9bf 62a6 f53f
000002d0: 4b3b fbbf 793f 963f 5a6b 8fbf 9482 5340
000002e0: 388c 6ebf 6f44 27bf 8bf7 babf 744b 0a40
000002f0: 2887 0abf fb18 0fbd 56f6 e6bd 1976 df3f
00000300: 715a 05c0 cfa8 bbbf b6c2 9fbf 5b35 a2bf
00000310: c17c 453e 485f 92bf feab 2640 83af 9cbf
00000320: ff72 e03f 0b6c 86bf 945a 823e 33ee efbc
00000330: 2842 733f 7edd d7bf 42f7 febf ade7 ab3f
00000340: 0dd9 c0bf 4e29 6d3e b5b9 3ac0 3ff1 d13f
00000350: 43c7 1340 1393 31bf 8149 d43f 5cd0 e03f
00000360: 5a85 03c0 2bef a2be 5b8b a2be 4cb1 85bf
00000370: ad75 78bf 42eb b03d 26da 81bf 0a16 57be
00000380: 87e0 6e3f 4b37 623d 31b2 0340 de07 97bf
00000390: c557 fdbe 287a d63f ac5b 0bbf 9bbf a3bf
000003a0: ff38 e3bf 8a31 7940 40b6 c9be 37f3 e6be
000003b0: 28ea 1440 2636 193f ebca 3a40 2cc1 2fbf
000003c0: f82b 9fbf 8756 14c0 df2f bcbf ce9d 0d40
000003d0: 3166 b4bf a45c e73f 9d0b 17bf 9a1a 5240
000003e0: 2ee8 8bbf 4701 f0be be6c b5bf c25c f63f
000003f0: f932 863d a8d0 e0bd f302 f83b 0e39 fc3f
-1.6451491 -1.6031606 -1.1648681 -2.173335 -0.28543082 -1.5801668 2.5165017 -1.1782817
1.7323024 -1.4245305 -0.75069016 0.80866456 0.92259085 -1.5440235 -2.02598 1.8595849
-1.0743998 -0.23528281 -2.275676 1.7649424 1.7635705 -0.018167192 1.0034162 3.4400606
-1.0446684 -0.417635 0.017075324 -0.7930471 -0.6725658 0.07222959 -0.65410906 0.29648894
1.0447983 -0.16954745 1.8634313 -1.094591 -0.08281888 0.6978884 0.055049907 -1.1620767
-1.8612391 2.9645348 -0.6794066 -0.5150822 2.733501 0.27915654 3.2524583 -0.787815
-0.74344003 -1.9020902 -0.9992192 2.2758834 -1.1141024 1.7910975 -0.41876805 2.9359195
-0.8091556 -0.4488445 -1.1533117 1.7271382 -0.5534335 0.09426153 0.03483531 1.8607543
-1.4270924 -1.7173666 -0.55157244 -2.350553 0.5828608 -1.5185363 2.4587023 0.04995861
1.7053038 -0.838123 -0.69562936 0.3182811 0.9710912 -1.5607128 -2.018369 2.2400107
-0.7832768 -0.66256887 -2.3038146 1.8310845 1.7602971 0.61634225 1.0539922 4.167512
-0.8147484 0.91201776 0.4378763 -1.0733683 -0.391432 -0.045451477 -1.0867876 1.381525
1.1484636 0.07349357 1.7881058 -0.7978112 1.5844988 -0.014078379 0.0065895114 -1.1758802
-1.5891579 3.0758333 -0.61480695 -0.2251924 2.3712301 0.6186525 2.7804666 -1.0301199
-0.9332891 -2.1128664 -2.0095584 1.9070214 -0.79629743 1.0271888 -0.79847515 3.735659
-0.5605494 -0.67245024 -0.5758428 1.7594079 -0.37617514 0.086767755 0.08746731 1.7894255
-1.1562566 -1.6657468 -1.1957123 -1.9586641 -0.8445689 -1.3594879 2.7727215 -1.0500281
1.4190029 -1.3466575 -0.4811463 -0.8093489 1.3396529 -1.7519364 -1.8505641 1.764934
-2.0108764 0.12496039 -2.1507583 1.4194651 2.2407272 1.1301478 1.4908254 3.6217883
-1.2100362 -0.22029755 0.5894747 -3.2295434 0.014276724 -0.037189573 -1.755012 -1.4883082
1.3671536 -0.0020546496 1.7282782 -1.1110057 -1.1025196 0.8897782 -1.1183274 -0.8078559
-1.9025785 3.9116645 0.55218375 -2.1403742 2.4684327 -0.7347365 1.9082551 -0.3108159
-1.014751 -2.3264372 -1.5777984 1.9191401 -1.962747 1.173812 -1.1204636 3.3048449
-0.93182707 -0.65338796 -1.4606794 2.1608553 -0.5411248 -0.034935933 -0.112774536 1.7457916
-2.083645 -1.4660891 -1.2481296 -1.2672533 0.19285871 -1.1435328 2.6042476 -1.2241062
1.7535094 -1.0501722 0.2545973 -0.029288387 0.9502282 -1.6864469 -1.9919207 1.3430077
-1.5066239 0.23160288 -2.9175847 1.6401747 2.309037 -0.6936504 1.6584932 1.7563586
-2.0550141 -0.31823096 -0.31746945 -1.0444732 -0.9705456 0.08638622 -1.0144699 -0.21004501
0.9331135 0.055228513 2.057751 -1.1799276 -0.49481025 1.6756029 -0.54436755 -1.2792848
-1.7751769 3.8936486 -0.39396858 -0.45107433 2.3267918 0.5984825 2.9186351 -0.6865413
-1.2435293 -2.3177812 -1.4702109 2.2127566 -1.4093686 1.8075147 -0.59002095 3.2828736
-1.0930231 -0.46875975 -1.417381 1.9247057 0.06552691 -0.10977298 0.007568711 1.9704912

fc3.bias f4 [4]
00000000: 112f aa3e 906c 73be 203d 0a3f d768 0a3f
0.33239034 -0.23771882 0.5399952 0.5406622
